…
 Starting training
Total of classes being trained: 1

['UCI_DAGHAR_Multiclass.csv']
----------------------------------------------------------------------------------------------------

----------------------------------------------------------------------------------------------------

 Starting individual training
UCI_DAGHAR_Multiclass training
Data path: ../DAGHAR_split_25_10_all/train/data/UCI_DAGHAR_Multiclass.csv
Label path: ../DAGHAR_split_25_10_all/train/label/UCI_Label_Multiclass.csv
----------------------------------------------------------------------------------------------------
Generator(
  (l1): Linear(in_features=100, out_features=600, bias=True)
  (blocks): Gen_TransformerEncoder(
    (0): Gen_TransformerEncoderBlock(
      (0): ResidualAdd(
        (fn): Sequential(
          (0): LayerNorm((10,), eps=1e-05, elementwise_affine=True)
          (1): MultiHeadAttention(
            (keys): Linear(in_features=10, out_features=10, bias=True)
            (queries): Linear(in_features=10, out_features=10, bias=True)
            (values): Linear(in_features=10, out_features=10, bias=True)
            (att_drop): Dropout(p=0.5, inplace=False)
            (projection): Linear(in_features=10, out_features=10, bias=True)
          )
          (2): Dropout(p=0.5, inplace=False)
        )
      )
      (1): ResidualAdd(
        (fn): Sequential(
          (0): LayerNorm((10,), eps=1e-05, elementwise_affine=True)
          (1): FeedForwardBlock(
            (0): Linear(in_features=10, out_features=40, bias=True)
            (1): GELU(approximate='none')
            (2): Dropout(p=0.5, inplace=False)
            (3): Linear(in_features=40, out_features=10, bias=True)
          )
          (2): Dropout(p=0.5, inplace=False)
        )
      )
    )
    (1): Gen_TransformerEncoderBlock(
      (0): ResidualAdd(
        (fn): Sequential(
          (0): LayerNorm((10,), eps=1e-05, elementwise_affine=True)
          (1): MultiHeadAttention(
            (keys): Linear(in_features=10, out_features=10, bias=True)
            (queries): Linear(in_features=10, out_features=10, bias=True)
            (values): Linear(in_features=10, out_features=10, bias=True)
            (att_drop): Dropout(p=0.5, inplace=False)
            (projection): Linear(in_features=10, out_features=10, bias=True)
          )
          (2): Dropout(p=0.5, inplace=False)
        )
      )
      (1): ResidualAdd(
        (fn): Sequential(
          (0): LayerNorm((10,), eps=1e-05, elementwise_affine=True)
          (1): FeedForwardBlock(
            (0): Linear(in_features=10, out_features=40, bias=True)
            (1): GELU(approximate='none')
            (2): Dropout(p=0.5, inplace=False)
            (3): Linear(in_features=40, out_features=10, bias=True)
          )
          (2): Dropout(p=0.5, inplace=False)
        )
      )
    )
    (2): Gen_TransformerEncoderBlock(
      (0): ResidualAdd(
        (fn): Sequential(
          (0): LayerNorm((10,), eps=1e-05, elementwise_affine=True)
          (1): MultiHeadAttention(
            (keys): Linear(in_features=10, out_features=10, bias=True)
            (queries): Linear(in_features=10, out_features=10, bias=True)
            (values): Linear(in_features=10, out_features=10, bias=True)
            (att_drop): Dropout(p=0.5, inplace=False)
            (projection): Linear(in_features=10, out_features=10, bias=True)
          )
          (2): Dropout(p=0.5, inplace=False)
        )
      )
      (1): ResidualAdd(
        (fn): Sequential(
          (0): LayerNorm((10,), eps=1e-05, elementwise_affine=True)
          (1): FeedForwardBlock(
            (0): Linear(in_features=10, out_features=40, bias=True)
            (1): GELU(approximate='none')
            (2): Dropout(p=0.5, inplace=False)
            (3): Linear(in_features=40, out_features=10, bias=True)
          )
          (2): Dropout(p=0.5, inplace=False)
        )
      )
    )
  )
  (deconv): Sequential(
    (0): Conv2d(10, 6, kernel_size=(1, 1), stride=(1, 1))
  )
)
Discriminator(
  (0): PatchEmbedding_Linear(
    (projection): Sequential(
      (0): RearrangeLayer()
      (1): Linear(in_features=90, out_features=50, bias=True)
    )
  )
  (1): Dis_TransformerEncoder(
    (0): Dis_TransformerEncoderBlock(
      (0): ResidualAdd(
        (fn): Sequential(
          (0): LayerNorm((50,), eps=1e-05, elementwise_affine=True)
          (1): MultiHeadAttention(
            (keys): Linear(in_features=50, out_features=50, bias=True)
            (queries): Linear(in_features=50, out_features=50, bias=True)
            (values): Linear(in_features=50, out_features=50, bias=True)
            (att_drop): Dropout(p=0.5, inplace=False)
            (projection): Linear(in_features=50, out_features=50, bias=True)
          )
          (2): Dropout(p=0.5, inplace=False)
        )
      )
      (1): ResidualAdd(
        (fn): Sequential(
          (0): LayerNorm((50,), eps=1e-05, elementwise_affine=True)
          (1): FeedForwardBlock(
            (0): Linear(in_features=50, out_features=200, bias=True)
            (1): GELU(approximate='none')
            (2): Dropout(p=0.5, inplace=False)
            (3): Linear(in_features=200, out_features=50, bias=True)
          )
          (2): Dropout(p=0.5, inplace=False)
        )
      )
    )
    (1): Dis_TransformerEncoderBlock(
      (0): ResidualAdd(
        (fn): Sequential(
          (0): LayerNorm((50,), eps=1e-05, elementwise_affine=True)
          (1): MultiHeadAttention(
            (keys): Linear(in_features=50, out_features=50, bias=True)
            (queries): Linear(in_features=50, out_features=50, bias=True)
            (values): Linear(in_features=50, out_features=50, bias=True)
            (att_drop): Dropout(p=0.5, inplace=False)
            (projection): Linear(in_features=50, out_features=50, bias=True)
          )
          (2): Dropout(p=0.5, inplace=False)
        )
      )
      (1): ResidualAdd(
        (fn): Sequential(
          (0): LayerNorm((50,), eps=1e-05, elementwise_affine=True)
          (1): FeedForwardBlock(
            (0): Linear(in_features=50, out_features=200, bias=True)
            (1): GELU(approximate='none')
            (2): Dropout(p=0.5, inplace=False)
            (3): Linear(in_features=200, out_features=50, bias=True)
          )
          (2): Dropout(p=0.5, inplace=False)
        )
      )
    )
    (2): Dis_TransformerEncoderBlock(
      (0): ResidualAdd(
        (fn): Sequential(
          (0): LayerNorm((50,), eps=1e-05, elementwise_affine=True)
          (1): MultiHeadAttention(
            (keys): Linear(in_features=50, out_features=50, bias=True)
            (queries): Linear(in_features=50, out_features=50, bias=True)
            (values): Linear(in_features=50, out_features=50, bias=True)
            (att_drop): Dropout(p=0.5, inplace=False)
            (projection): Linear(in_features=50, out_features=50, bias=True)
          )
          (2): Dropout(p=0.5, inplace=False)
        )
      )
      (1): ResidualAdd(
        (fn): Sequential(
          (0): LayerNorm((50,), eps=1e-05, elementwise_affine=True)
          (1): FeedForwardBlock(
            (0): Linear(in_features=50, out_features=200, bias=True)
            (1): GELU(approximate='none')
            (2): Dropout(p=0.5, inplace=False)
            (3): Linear(in_features=200, out_features=50, bias=True)
          )
          (2): Dropout(p=0.5, inplace=False)
        )
      )
    )
  )
  (2): ClassificationHead(
    (clshead): Sequential(
      (0): ReduceLayer()
      (1): LayerNorm((50,), eps=1e-05, elementwise_affine=True)
      (2): Linear(in_features=50, out_features=1, bias=True)
    )
  )
)
DataParallel(
  (module): Discriminator(
    (0): PatchEmbedding_Linear(
      (projection): Sequential(
        (0): RearrangeLayer()
        (1): Linear(in_features=90, out_features=50, bias=True)
      )
    )
    (1): Dis_TransformerEncoder(
      (0): Dis_TransformerEncoderBlock(
        (0): ResidualAdd(
          (fn): Sequential(
            (0): LayerNorm((50,), eps=1e-05, elementwise_affine=True)
            (1): MultiHeadAttention(
              (keys): Linear(in_features=50, out_features=50, bias=True)
              (queries): Linear(in_features=50, out_features=50, bias=True)
              (values): Linear(in_features=50, out_features=50, bias=True)
              (att_drop): Dropout(p=0.5, inplace=False)
              (projection): Linear(in_features=50, out_features=50, bias=True)
            )
            (2): Dropout(p=0.5, inplace=False)
          )
        )
        (1): ResidualAdd(
          (fn): Sequential(
            (0): LayerNorm((50,), eps=1e-05, elementwise_affine=True)
            (1): FeedForwardBlock(
              (0): Linear(in_features=50, out_features=200, bias=True)
              (1): GELU(approximate='none')
              (2): Dropout(p=0.5, inplace=False)
              (3): Linear(in_features=200, out_features=50, bias=True)
            )
            (2): Dropout(p=0.5, inplace=False)
          )
        )
      )
      (1): Dis_TransformerEncoderBlock(
        (0): ResidualAdd(
          (fn): Sequential(
            (0): LayerNorm((50,), eps=1e-05, elementwise_affine=True)
            (1): MultiHeadAttention(
              (keys): Linear(in_features=50, out_features=50, bias=True)
              (queries): Linear(in_features=50, out_features=50, bias=True)
              (values): Linear(in_features=50, out_features=50, bias=True)
              (att_drop): Dropout(p=0.5, inplace=False)
              (projection): Linear(in_features=50, out_features=50, bias=True)
            )
            (2): Dropout(p=0.5, inplace=False)
          )
        )
        (1): ResidualAdd(
          (fn): Sequential(
            (0): LayerNorm((50,), eps=1e-05, elementwise_affine=True)
            (1): FeedForwardBlock(
              (0): Linear(in_features=50, out_features=200, bias=True)
              (1): GELU(approximate='none')
              (2): Dropout(p=0.5, inplace=False)
              (3): Linear(in_features=200, out_features=50, bias=True)
            )
            (2): Dropout(p=0.5, inplace=False)
          )
        )
      )
      (2): Dis_TransformerEncoderBlock(
        (0): ResidualAdd(
          (fn): Sequential(
            (0): LayerNorm((50,), eps=1e-05, elementwise_affine=True)
            (1): MultiHeadAttention(
              (keys): Linear(in_features=50, out_features=50, bias=True)
              (queries): Linear(in_features=50, out_features=50, bias=True)
              (values): Linear(in_features=50, out_features=50, bias=True)
              (att_drop): Dropout(p=0.5, inplace=False)
              (projection): Linear(in_features=50, out_features=50, bias=True)
            )
            (2): Dropout(p=0.5, inplace=False)
          )
        )
        (1): ResidualAdd(
          (fn): Sequential(
            (0): LayerNorm((50,), eps=1e-05, elementwise_affine=True)
            (1): FeedForwardBlock(
              (0): Linear(in_features=50, out_features=200, bias=True)
              (1): GELU(approximate='none')
              (2): Dropout(p=0.5, inplace=False)
              (3): Linear(in_features=200, out_features=50, bias=True)
            )
            (2): Dropout(p=0.5, inplace=False)
          )
        )
      )
    )
    (2): ClassificationHead(
      (clshead): Sequential(
        (0): ReduceLayer()
        (1): LayerNorm((50,), eps=1e-05, elementwise_affine=True)
        (2): Linear(in_features=50, out_features=1, bias=True)
      )
    )
  )
)
UCI_DAGHAR_Multiclass
daghar
Returning single-class data and labels, class: UCI_DAGHAR_Multiclass
Data shape: (29430, 6, 1, 60)
Label shape: (29430,)
460
Epochs between checkpoint: 75



Saving checkpoint 1 in logs/minerva/UCI_DAGHAR_Multiclass_137694_D_60_6axis_2025_03_18_13_32_31/Model



[Epoch 0/300] [Batch 0/460] [D loss: 0.816038] [G loss: 0.602094] [ema: 0.000000] 
…
