Generator(
  (l1): Linear(in_features=100, out_features=1500, bias=True)
  (blocks): Gen_TransformerEncoder(
    (0): Gen_TransformerEncoderBlock(
      (0): ResidualAdd(
        (fn): Sequential(
          (0): LayerNorm((10,), eps=1e-05, elementwise_affine=True)
          (1): MultiHeadAttention(
            (keys): Linear(in_features=10, out_features=10, bias=True)
            (queries): Linear(in_features=10, out_features=10, bias=True)
            (values): Linear(in_features=10, out_features=10, bias=True)
            (att_drop): Dropout(p=0.5, inplace=False)
            (projection): Linear(in_features=10, out_features=10, bias=True)
          )
          (2): Dropout(p=0.5, inplace=False)
        )
      )
      (1): ResidualAdd(
        (fn): Sequential(
          (0): LayerNorm((10,), eps=1e-05, elementwise_affine=True)
          (1): FeedForwardBlock(
            (0): Linear(in_features=10, out_features=40, bias=True)
            (1): GELU(approximate='none')
            (2): Dropout(p=0.5, inplace=False)
            (3): Linear(in_features=40, out_features=10, bias=True)
          )
          (2): Dropout(p=0.5, inplace=False)
        )
      )
    )
    (1): Gen_TransformerEncoderBlock(
      (0): ResidualAdd(
        (fn): Sequential(
          (0): LayerNorm((10,), eps=1e-05, elementwise_affine=True)
          (1): MultiHeadAttention(
            (keys): Linear(in_features=10, out_features=10, bias=True)
            (queries): Linear(in_features=10, out_features=10, bias=True)
            (values): Linear(in_features=10, out_features=10, bias=True)
            (att_drop): Dropout(p=0.5, inplace=False)
            (projection): Linear(in_features=10, out_features=10, bias=True)
          )
          (2): Dropout(p=0.5, inplace=False)
        )
      )
      (1): ResidualAdd(
        (fn): Sequential(
          (0): LayerNorm((10,), eps=1e-05, elementwise_affine=True)
          (1): FeedForwardBlock(
            (0): Linear(in_features=10, out_features=40, bias=True)
            (1): GELU(approximate='none')
            (2): Dropout(p=0.5, inplace=False)
            (3): Linear(in_features=40, out_features=10, bias=True)
          )
          (2): Dropout(p=0.5, inplace=False)
        )
      )
    )
    (2): Gen_TransformerEncoderBlock(
      (0): ResidualAdd(
        (fn): Sequential(
          (0): LayerNorm((10,), eps=1e-05, elementwise_affine=True)
          (1): MultiHeadAttention(
            (keys): Linear(in_features=10, out_features=10, bias=True)
            (queries): Linear(in_features=10, out_features=10, bias=True)
            (values): Linear(in_features=10, out_features=10, bias=True)
            (att_drop): Dropout(p=0.5, inplace=False)
            (projection): Linear(in_features=10, out_features=10, bias=True)
          )
          (2): Dropout(p=0.5, inplace=False)
        )
      )
      (1): ResidualAdd(
        (fn): Sequential(
          (0): LayerNorm((10,), eps=1e-05, elementwise_affine=True)
          (1): FeedForwardBlock(
            (0): Linear(in_features=10, out_features=40, bias=True)
            (1): GELU(approximate='none')
            (2): Dropout(p=0.5, inplace=False)
            (3): Linear(in_features=40, out_features=10, bias=True)
          )
          (2): Dropout(p=0.5, inplace=False)
        )
      )
    )
  )
  (deconv): Sequential(
    (0): Conv2d(10, 3, kernel_size=(1, 1), stride=(1, 1))
  )
)
Discriminator(
  (0): PatchEmbedding_Linear(
    (projection): Sequential(
      (0): Rearrange('b c (h s1) (w s2) -> b (h w) (s1 s2 c)', s1=1, s2=15)
      (1): Linear(in_features=45, out_features=50, bias=True)
    )
  )
  (1): Dis_TransformerEncoder(
    (0): Dis_TransformerEncoderBlock(
      (0): ResidualAdd(
        (fn): Sequential(
          (0): LayerNorm((50,), eps=1e-05, elementwise_affine=True)
          (1): MultiHeadAttention(
            (keys): Linear(in_features=50, out_features=50, bias=True)
            (queries): Linear(in_features=50, out_features=50, bias=True)
            (values): Linear(in_features=50, out_features=50, bias=True)
            (att_drop): Dropout(p=0.5, inplace=False)
            (projection): Linear(in_features=50, out_features=50, bias=True)
          )
          (2): Dropout(p=0.5, inplace=False)
        )
      )
      (1): ResidualAdd(
        (fn): Sequential(
          (0): LayerNorm((50,), eps=1e-05, elementwise_affine=True)
          (1): FeedForwardBlock(
            (0): Linear(in_features=50, out_features=200, bias=True)
            (1): GELU(approximate='none')
            (2): Dropout(p=0.5, inplace=False)
            (3): Linear(in_features=200, out_features=50, bias=True)
          )
          (2): Dropout(p=0.5, inplace=False)
        )
      )
    )
    (1): Dis_TransformerEncoderBlock(
      (0): ResidualAdd(
        (fn): Sequential(
          (0): LayerNorm((50,), eps=1e-05, elementwise_affine=True)
          (1): MultiHeadAttention(
            (keys): Linear(in_features=50, out_features=50, bias=True)
            (queries): Linear(in_features=50, out_features=50, bias=True)
            (values): Linear(in_features=50, out_features=50, bias=True)
            (att_drop): Dropout(p=0.5, inplace=False)
            (projection): Linear(in_features=50, out_features=50, bias=True)
          )
          (2): Dropout(p=0.5, inplace=False)
        )
      )
      (1): ResidualAdd(
        (fn): Sequential(
          (0): LayerNorm((50,), eps=1e-05, elementwise_affine=True)
          (1): FeedForwardBlock(
            (0): Linear(in_features=50, out_features=200, bias=True)
            (1): GELU(approximate='none')
            (2): Dropout(p=0.5, inplace=False)
            (3): Linear(in_features=200, out_features=50, bias=True)
          )
          (2): Dropout(p=0.5, inplace=False)
        )
      )
    )
    (2): Dis_TransformerEncoderBlock(
      (0): ResidualAdd(
        (fn): Sequential(
          (0): LayerNorm((50,), eps=1e-05, elementwise_affine=True)
          (1): MultiHeadAttention(
            (keys): Linear(in_features=50, out_features=50, bias=True)
            (queries): Linear(in_features=50, out_features=50, bias=True)
            (values): Linear(in_features=50, out_features=50, bias=True)
            (att_drop): Dropout(p=0.5, inplace=False)
            (projection): Linear(in_features=50, out_features=50, bias=True)
          )
          (2): Dropout(p=0.5, inplace=False)
        )
      )
      (1): ResidualAdd(
        (fn): Sequential(
          (0): LayerNorm((50,), eps=1e-05, elementwise_affine=True)
          (1): FeedForwardBlock(
            (0): Linear(in_features=50, out_features=200, bias=True)
            (1): GELU(approximate='none')
            (2): Dropout(p=0.5, inplace=False)
            (3): Linear(in_features=200, out_features=50, bias=True)
          )
          (2): Dropout(p=0.5, inplace=False)
        )
      )
    )
  )
  (2): ClassificationHead(
    (clshead): Sequential(
      (0): Reduce('b n e -> b e', 'mean')
      (1): LayerNorm((50,), eps=1e-05, elementwise_affine=True)
      (2): Linear(in_features=50, out_features=1, bias=True)
    )
  )
)
DataParallel(
  (module): Discriminator(
    (0): PatchEmbedding_Linear(
      (projection): Sequential(
        (0): Rearrange('b c (h s1) (w s2) -> b (h w) (s1 s2 c)', s1=1, s2=15)
        (1): Linear(in_features=45, out_features=50, bias=True)
      )
    )
    (1): Dis_TransformerEncoder(
      (0): Dis_TransformerEncoderBlock(
        (0): ResidualAdd(
          (fn): Sequential(
            (0): LayerNorm((50,), eps=1e-05, elementwise_affine=True)
            (1): MultiHeadAttention(
              (keys): Linear(in_features=50, out_features=50, bias=True)
              (queries): Linear(in_features=50, out_features=50, bias=True)
              (values): Linear(in_features=50, out_features=50, bias=True)
              (att_drop): Dropout(p=0.5, inplace=False)
              (projection): Linear(in_features=50, out_features=50, bias=True)
            )
            (2): Dropout(p=0.5, inplace=False)
          )
        )
        (1): ResidualAdd(
          (fn): Sequential(
            (0): LayerNorm((50,), eps=1e-05, elementwise_affine=True)
            (1): FeedForwardBlock(
              (0): Linear(in_features=50, out_features=200, bias=True)
              (1): GELU(approximate='none')
              (2): Dropout(p=0.5, inplace=False)
              (3): Linear(in_features=200, out_features=50, bias=True)
            )
            (2): Dropout(p=0.5, inplace=False)
          )
        )
      )
      (1): Dis_TransformerEncoderBlock(
        (0): ResidualAdd(
          (fn): Sequential(
            (0): LayerNorm((50,), eps=1e-05, elementwise_affine=True)
            (1): MultiHeadAttention(
              (keys): Linear(in_features=50, out_features=50, bias=True)
              (queries): Linear(in_features=50, out_features=50, bias=True)
              (values): Linear(in_features=50, out_features=50, bias=True)
              (att_drop): Dropout(p=0.5, inplace=False)
              (projection): Linear(in_features=50, out_features=50, bias=True)
            )
            (2): Dropout(p=0.5, inplace=False)
          )
        )
        (1): ResidualAdd(
          (fn): Sequential(
            (0): LayerNorm((50,), eps=1e-05, elementwise_affine=True)
            (1): FeedForwardBlock(
              (0): Linear(in_features=50, out_features=200, bias=True)
              (1): GELU(approximate='none')
              (2): Dropout(p=0.5, inplace=False)
              (3): Linear(in_features=200, out_features=50, bias=True)
            )
            (2): Dropout(p=0.5, inplace=False)
          )
        )
      )
      (2): Dis_TransformerEncoderBlock(
        (0): ResidualAdd(
          (fn): Sequential(
            (0): LayerNorm((50,), eps=1e-05, elementwise_affine=True)
            (1): MultiHeadAttention(
              (keys): Linear(in_features=50, out_features=50, bias=True)
              (queries): Linear(in_features=50, out_features=50, bias=True)
              (values): Linear(in_features=50, out_features=50, bias=True)
              (att_drop): Dropout(p=0.5, inplace=False)
              (projection): Linear(in_features=50, out_features=50, bias=True)
            )
            (2): Dropout(p=0.5, inplace=False)
          )
        )
        (1): ResidualAdd(
          (fn): Sequential(
            (0): LayerNorm((50,), eps=1e-05, elementwise_affine=True)
            (1): FeedForwardBlock(
              (0): Linear(in_features=50, out_features=200, bias=True)
              (1): GELU(approximate='none')
              (2): Dropout(p=0.5, inplace=False)
              (3): Linear(in_features=200, out_features=50, bias=True)
            )
            (2): Dropout(p=0.5, inplace=False)
          )
        )
      )
    )
    (2): ClassificationHead(
      (clshead): Sequential(
        (0): Reduce('b n e -> b e', 'mean')
        (1): LayerNorm((50,), eps=1e-05, elementwise_affine=True)
        (2): Linear(in_features=50, out_features=1, bias=True)
      )
    )
  )
)
x_train shape is (6055, 3, 1, 150), x_test shape is (1524, 3, 1, 150)
y_train shape is (6055,), y_test shape is (1524,)
return single class data and labels, class is Running
train_data shape is (1572, 3, 1, 150), test_data shape is (413, 3, 1, 150)
train label shape is (1572,), test data shape is (413,)
x_train shape is (6055, 3, 1, 150), x_test shape is (1524, 3, 1, 150)
…
