
 Starting training
Total of classes being trained: 6

['upstairs.csv', 'run.csv', 'walk.csv', 'downstairs.csv', 'sit.csv', 'stand.csv']
----------------------------------------------------------------------------------------------------

----------------------------------------------------------------------------------------------------

 Starting individual training
upstairs training
----------------------------------------------------------------------------------------------------
Generator(
  (l1): Linear(in_features=100, out_features=600, bias=True)
  (blocks): Gen_TransformerEncoder(
    (0): Gen_TransformerEncoderBlock(
      (0): ResidualAdd(
        (fn): Sequential(
          (0): LayerNorm((10,), eps=1e-05, elementwise_affine=True)
          (1): MultiHeadAttention(
            (keys): Linear(in_features=10, out_features=10, bias=True)
            (queries): Linear(in_features=10, out_features=10, bias=True)
            (values): Linear(in_features=10, out_features=10, bias=True)
            (att_drop): Dropout(p=0.5, inplace=False)
            (projection): Linear(in_features=10, out_features=10, bias=True)
          )
          (2): Dropout(p=0.5, inplace=False)
        )
      )
      (1): ResidualAdd(
        (fn): Sequential(
          (0): LayerNorm((10,), eps=1e-05, elementwise_affine=True)
          (1): FeedForwardBlock(
            (0): Linear(in_features=10, out_features=40, bias=True)
            (1): GELU(approximate='none')
            (2): Dropout(p=0.5, inplace=False)
            (3): Linear(in_features=40, out_features=10, bias=True)
          )
          (2): Dropout(p=0.5, inplace=False)
        )
      )
    )
    (1): Gen_TransformerEncoderBlock(
      (0): ResidualAdd(
        (fn): Sequential(
          (0): LayerNorm((10,), eps=1e-05, elementwise_affine=True)
          (1): MultiHeadAttention(
            (keys): Linear(in_features=10, out_features=10, bias=True)
            (queries): Linear(in_features=10, out_features=10, bias=True)
            (values): Linear(in_features=10, out_features=10, bias=True)
            (att_drop): Dropout(p=0.5, inplace=False)
            (projection): Linear(in_features=10, out_features=10, bias=True)
          )
          (2): Dropout(p=0.5, inplace=False)
        )
      )
      (1): ResidualAdd(
        (fn): Sequential(
          (0): LayerNorm((10,), eps=1e-05, elementwise_affine=True)
          (1): FeedForwardBlock(
            (0): Linear(in_features=10, out_features=40, bias=True)
            (1): GELU(approximate='none')
            (2): Dropout(p=0.5, inplace=False)
            (3): Linear(in_features=40, out_features=10, bias=True)
          )
          (2): Dropout(p=0.5, inplace=False)
        )
      )
    )
    (2): Gen_TransformerEncoderBlock(
      (0): ResidualAdd(
        (fn): Sequential(
          (0): LayerNorm((10,), eps=1e-05, elementwise_affine=True)
          (1): MultiHeadAttention(
            (keys): Linear(in_features=10, out_features=10, bias=True)
            (queries): Linear(in_features=10, out_features=10, bias=True)
            (values): Linear(in_features=10, out_features=10, bias=True)
            (att_drop): Dropout(p=0.5, inplace=False)
            (projection): Linear(in_features=10, out_features=10, bias=True)
          )
          (2): Dropout(p=0.5, inplace=False)
        )
      )
      (1): ResidualAdd(
        (fn): Sequential(
          (0): LayerNorm((10,), eps=1e-05, elementwise_affine=True)
          (1): FeedForwardBlock(
            (0): Linear(in_features=10, out_features=40, bias=True)
            (1): GELU(approximate='none')
            (2): Dropout(p=0.5, inplace=False)
            (3): Linear(in_features=40, out_features=10, bias=True)
          )
          (2): Dropout(p=0.5, inplace=False)
        )
      )
    )
  )
  (deconv): Sequential(
    (0): Conv2d(10, 3, kernel_size=(1, 1), stride=(1, 1))
  )
)
Discriminator(
  (0): PatchEmbedding_Linear(
    (projection): Sequential(
      (0): Rearrange('b c (h s1) (w s2) -> b (h w) (s1 s2 c)', s1=1, s2=15)
      (1): Linear(in_features=45, out_features=50, bias=True)
    )
  )
  (1): Dis_TransformerEncoder(
    (0): Dis_TransformerEncoderBlock(
      (0): ResidualAdd(
        (fn): Sequential(
          (0): LayerNorm((50,), eps=1e-05, elementwise_affine=True)
          (1): MultiHeadAttention(
            (keys): Linear(in_features=50, out_features=50, bias=True)
            (queries): Linear(in_features=50, out_features=50, bias=True)
            (values): Linear(in_features=50, out_features=50, bias=True)
            (att_drop): Dropout(p=0.5, inplace=False)
            (projection): Linear(in_features=50, out_features=50, bias=True)
          )
          (2): Dropout(p=0.5, inplace=False)
        )
      )
      (1): ResidualAdd(
        (fn): Sequential(
          (0): LayerNorm((50,), eps=1e-05, elementwise_affine=True)
          (1): FeedForwardBlock(
            (0): Linear(in_features=50, out_features=200, bias=True)
            (1): GELU(approximate='none')
            (2): Dropout(p=0.5, inplace=False)
            (3): Linear(in_features=200, out_features=50, bias=True)
          )
          (2): Dropout(p=0.5, inplace=False)
        )
      )
    )
    (1): Dis_TransformerEncoderBlock(
      (0): ResidualAdd(
        (fn): Sequential(
          (0): LayerNorm((50,), eps=1e-05, elementwise_affine=True)
          (1): MultiHeadAttention(
            (keys): Linear(in_features=50, out_features=50, bias=True)
            (queries): Linear(in_features=50, out_features=50, bias=True)
            (values): Linear(in_features=50, out_features=50, bias=True)
            (att_drop): Dropout(p=0.5, inplace=False)
            (projection): Linear(in_features=50, out_features=50, bias=True)
          )
          (2): Dropout(p=0.5, inplace=False)
        )
      )
      (1): ResidualAdd(
        (fn): Sequential(
          (0): LayerNorm((50,), eps=1e-05, elementwise_affine=True)
          (1): FeedForwardBlock(
            (0): Linear(in_features=50, out_features=200, bias=True)
            (1): GELU(approximate='none')
            (2): Dropout(p=0.5, inplace=False)
            (3): Linear(in_features=200, out_features=50, bias=True)
          )
          (2): Dropout(p=0.5, inplace=False)
        )
      )
    )
    (2): Dis_TransformerEncoderBlock(
      (0): ResidualAdd(
        (fn): Sequential(
          (0): LayerNorm((50,), eps=1e-05, elementwise_affine=True)
          (1): MultiHeadAttention(
            (keys): Linear(in_features=50, out_features=50, bias=True)
            (queries): Linear(in_features=50, out_features=50, bias=True)
            (values): Linear(in_features=50, out_features=50, bias=True)
            (att_drop): Dropout(p=0.5, inplace=False)
            (projection): Linear(in_features=50, out_features=50, bias=True)
          )
          (2): Dropout(p=0.5, inplace=False)
        )
      )
      (1): ResidualAdd(
        (fn): Sequential(
          (0): LayerNorm((50,), eps=1e-05, elementwise_affine=True)
          (1): FeedForwardBlock(
            (0): Linear(in_features=50, out_features=200, bias=True)
            (1): GELU(approximate='none')
            (2): Dropout(p=0.5, inplace=False)
            (3): Linear(in_features=200, out_features=50, bias=True)
          )
          (2): Dropout(p=0.5, inplace=False)
        )
      )
    )
  )
  (2): ClassificationHead(
    (clshead): Sequential(
      (0): Reduce('b n e -> b e', 'mean')
      (1): LayerNorm((50,), eps=1e-05, elementwise_affine=True)
      (2): Linear(in_features=50, out_features=1, bias=True)
    )
  )
)
DataParallel(
  (module): Discriminator(
    (0): PatchEmbedding_Linear(
      (projection): Sequential(
        (0): Rearrange('b c (h s1) (w s2) -> b (h w) (s1 s2 c)', s1=1, s2=15)
        (1): Linear(in_features=45, out_features=50, bias=True)
      )
    )
    (1): Dis_TransformerEncoder(
      (0): Dis_TransformerEncoderBlock(
        (0): ResidualAdd(
          (fn): Sequential(
            (0): LayerNorm((50,), eps=1e-05, elementwise_affine=True)
            (1): MultiHeadAttention(
              (keys): Linear(in_features=50, out_features=50, bias=True)
              (queries): Linear(in_features=50, out_features=50, bias=True)
              (values): Linear(in_features=50, out_features=50, bias=True)
              (att_drop): Dropout(p=0.5, inplace=False)
              (projection): Linear(in_features=50, out_features=50, bias=True)
            )
            (2): Dropout(p=0.5, inplace=False)
          )
        )
        (1): ResidualAdd(
          (fn): Sequential(
            (0): LayerNorm((50,), eps=1e-05, elementwise_affine=True)
            (1): FeedForwardBlock(
              (0): Linear(in_features=50, out_features=200, bias=True)
              (1): GELU(approximate='none')
              (2): Dropout(p=0.5, inplace=False)
              (3): Linear(in_features=200, out_features=50, bias=True)
            )
            (2): Dropout(p=0.5, inplace=False)
          )
        )
      )
      (1): Dis_TransformerEncoderBlock(
        (0): ResidualAdd(
          (fn): Sequential(
            (0): LayerNorm((50,), eps=1e-05, elementwise_affine=True)
            (1): MultiHeadAttention(
              (keys): Linear(in_features=50, out_features=50, bias=True)
              (queries): Linear(in_features=50, out_features=50, bias=True)
              (values): Linear(in_features=50, out_features=50, bias=True)
              (att_drop): Dropout(p=0.5, inplace=False)
              (projection): Linear(in_features=50, out_features=50, bias=True)
            )
            (2): Dropout(p=0.5, inplace=False)
          )
        )
        (1): ResidualAdd(
          (fn): Sequential(
            (0): LayerNorm((50,), eps=1e-05, elementwise_affine=True)
            (1): FeedForwardBlock(
              (0): Linear(in_features=50, out_features=200, bias=True)
              (1): GELU(approximate='none')
              (2): Dropout(p=0.5, inplace=False)
              (3): Linear(in_features=200, out_features=50, bias=True)
            )
            (2): Dropout(p=0.5, inplace=False)
          )
        )
      )
      (2): Dis_TransformerEncoderBlock(
        (0): ResidualAdd(
          (fn): Sequential(
            (0): LayerNorm((50,), eps=1e-05, elementwise_affine=True)
            (1): MultiHeadAttention(
              (keys): Linear(in_features=50, out_features=50, bias=True)
              (queries): Linear(in_features=50, out_features=50, bias=True)
              (values): Linear(in_features=50, out_features=50, bias=True)
              (att_drop): Dropout(p=0.5, inplace=False)
              (projection): Linear(in_features=50, out_features=50, bias=True)
            )
            (2): Dropout(p=0.5, inplace=False)
          )
        )
        (1): ResidualAdd(
          (fn): Sequential(
            (0): LayerNorm((50,), eps=1e-05, elementwise_affine=True)
            (1): FeedForwardBlock(
              (0): Linear(in_features=50, out_features=200, bias=True)
              (1): GELU(approximate='none')
              (2): Dropout(p=0.5, inplace=False)
              (3): Linear(in_features=200, out_features=50, bias=True)
            )
            (2): Dropout(p=0.5, inplace=False)
          )
        )
      )
    )
    (2): ClassificationHead(
      (clshead): Sequential(
        (0): Reduce('b n e -> b e', 'mean')
        (1): LayerNorm((50,), eps=1e-05, elementwise_affine=True)
        (2): Linear(in_features=50, out_features=1, bias=True)
      )
    )
  )
)
upstairs
daghar
return single class data and labels, class is upstairs
data shape is (6427, 3, 1, 60)
label shape is (6427,)
402
Epochs between checkpoint: 32



Saving checkpoint 1 in logs/daghar_50000_60_100/upstairs_50000_D_60_2024_10_23_17_18_20/Model



[Epoch 0/125] [Batch 0/402] [D loss: 1.137400] [G loss: 0.379290] [ema: 0.000000] 
…
