
 Starting training
Total of classes being trained: 1

['UCI_DAGHAR_Multiclass.csv']
----------------------------------------------------------------------------------------------------

----------------------------------------------------------------------------------------------------

 Starting individual training
UCI_DAGHAR_Multiclass training
----------------------------------------------------------------------------------------------------
Generator(
  (l1): Linear(in_features=100, out_features=300, bias=True)
  (blocks): Gen_TransformerEncoder(
    (0): Gen_TransformerEncoderBlock(
      (0): ResidualAdd(
        (fn): Sequential(
          (0): LayerNorm((10,), eps=1e-05, elementwise_affine=True)
          (1): MultiHeadAttention(
            (keys): Linear(in_features=10, out_features=10, bias=True)
            (queries): Linear(in_features=10, out_features=10, bias=True)
            (values): Linear(in_features=10, out_features=10, bias=True)
            (att_drop): Dropout(p=0.5, inplace=False)
            (projection): Linear(in_features=10, out_features=10, bias=True)
          )
          (2): Dropout(p=0.5, inplace=False)
        )
      )
      (1): ResidualAdd(
        (fn): Sequential(
          (0): LayerNorm((10,), eps=1e-05, elementwise_affine=True)
          (1): FeedForwardBlock(
            (0): Linear(in_features=10, out_features=40, bias=True)
            (1): GELU(approximate='none')
            (2): Dropout(p=0.5, inplace=False)
            (3): Linear(in_features=40, out_features=10, bias=True)
          )
          (2): Dropout(p=0.5, inplace=False)
        )
      )
    )
    (1): Gen_TransformerEncoderBlock(
      (0): ResidualAdd(
        (fn): Sequential(
          (0): LayerNorm((10,), eps=1e-05, elementwise_affine=True)
          (1): MultiHeadAttention(
            (keys): Linear(in_features=10, out_features=10, bias=True)
            (queries): Linear(in_features=10, out_features=10, bias=True)
            (values): Linear(in_features=10, out_features=10, bias=True)
            (att_drop): Dropout(p=0.5, inplace=False)
            (projection): Linear(in_features=10, out_features=10, bias=True)
          )
          (2): Dropout(p=0.5, inplace=False)
        )
      )
      (1): ResidualAdd(
        (fn): Sequential(
          (0): LayerNorm((10,), eps=1e-05, elementwise_affine=True)
          (1): FeedForwardBlock(
            (0): Linear(in_features=10, out_features=40, bias=True)
            (1): GELU(approximate='none')
            (2): Dropout(p=0.5, inplace=False)
            (3): Linear(in_features=40, out_features=10, bias=True)
          )
          (2): Dropout(p=0.5, inplace=False)
        )
      )
    )
    (2): Gen_TransformerEncoderBlock(
      (0): ResidualAdd(
        (fn): Sequential(
          (0): LayerNorm((10,), eps=1e-05, elementwise_affine=True)
          (1): MultiHeadAttention(
            (keys): Linear(in_features=10, out_features=10, bias=True)
            (queries): Linear(in_features=10, out_features=10, bias=True)
            (values): Linear(in_features=10, out_features=10, bias=True)
            (att_drop): Dropout(p=0.5, inplace=False)
            (projection): Linear(in_features=10, out_features=10, bias=True)
          )
          (2): Dropout(p=0.5, inplace=False)
        )
      )
      (1): ResidualAdd(
        (fn): Sequential(
          (0): LayerNorm((10,), eps=1e-05, elementwise_affine=True)
          (1): FeedForwardBlock(
            (0): Linear(in_features=10, out_features=40, bias=True)
            (1): GELU(approximate='none')
            (2): Dropout(p=0.5, inplace=False)
            (3): Linear(in_features=40, out_features=10, bias=True)
          )
          (2): Dropout(p=0.5, inplace=False)
        )
      )
    )
  )
  (deconv): Sequential(
    (0): Conv2d(10, 6, kernel_size=(1, 1), stride=(1, 1))
  )
)
Discriminator(
  (0): PatchEmbedding_Linear(
    (projection): Sequential(
      (0): Rearrange('b c (h s1) (w s2) -> b (h w) (s1 s2 c)', s1=1, s2=15)
      (1): Linear(in_features=90, out_features=50, bias=True)
    )
  )
  (1): Dis_TransformerEncoder(
    (0): Dis_TransformerEncoderBlock(
      (0): ResidualAdd(
        (fn): Sequential(
          (0): LayerNorm((50,), eps=1e-05, elementwise_affine=True)
          (1): MultiHeadAttention(
            (keys): Linear(in_features=50, out_features=50, bias=True)
            (queries): Linear(in_features=50, out_features=50, bias=True)
            (values): Linear(in_features=50, out_features=50, bias=True)
            (att_drop): Dropout(p=0.5, inplace=False)
            (projection): Linear(in_features=50, out_features=50, bias=True)
          )
          (2): Dropout(p=0.5, inplace=False)
        )
      )
      (1): ResidualAdd(
        (fn): Sequential(
          (0): LayerNorm((50,), eps=1e-05, elementwise_affine=True)
          (1): FeedForwardBlock(
            (0): Linear(in_features=50, out_features=200, bias=True)
            (1): GELU(approximate='none')
            (2): Dropout(p=0.5, inplace=False)
            (3): Linear(in_features=200, out_features=50, bias=True)
          )
          (2): Dropout(p=0.5, inplace=False)
        )
      )
    )
    (1): Dis_TransformerEncoderBlock(
      (0): ResidualAdd(
        (fn): Sequential(
          (0): LayerNorm((50,), eps=1e-05, elementwise_affine=True)
          (1): MultiHeadAttention(
            (keys): Linear(in_features=50, out_features=50, bias=True)
            (queries): Linear(in_features=50, out_features=50, bias=True)
            (values): Linear(in_features=50, out_features=50, bias=True)
            (att_drop): Dropout(p=0.5, inplace=False)
            (projection): Linear(in_features=50, out_features=50, bias=True)
          )
          (2): Dropout(p=0.5, inplace=False)
        )
      )
      (1): ResidualAdd(
        (fn): Sequential(
          (0): LayerNorm((50,), eps=1e-05, elementwise_affine=True)
          (1): FeedForwardBlock(
            (0): Linear(in_features=50, out_features=200, bias=True)
            (1): GELU(approximate='none')
            (2): Dropout(p=0.5, inplace=False)
            (3): Linear(in_features=200, out_features=50, bias=True)
          )
          (2): Dropout(p=0.5, inplace=False)
        )
      )
    )
    (2): Dis_TransformerEncoderBlock(
      (0): ResidualAdd(
        (fn): Sequential(
          (0): LayerNorm((50,), eps=1e-05, elementwise_affine=True)
          (1): MultiHeadAttention(
            (keys): Linear(in_features=50, out_features=50, bias=True)
            (queries): Linear(in_features=50, out_features=50, bias=True)
            (values): Linear(in_features=50, out_features=50, bias=True)
            (att_drop): Dropout(p=0.5, inplace=False)
            (projection): Linear(in_features=50, out_features=50, bias=True)
          )
          (2): Dropout(p=0.5, inplace=False)
        )
      )
      (1): ResidualAdd(
        (fn): Sequential(
          (0): LayerNorm((50,), eps=1e-05, elementwise_affine=True)
          (1): FeedForwardBlock(
            (0): Linear(in_features=50, out_features=200, bias=True)
            (1): GELU(approximate='none')
            (2): Dropout(p=0.5, inplace=False)
            (3): Linear(in_features=200, out_features=50, bias=True)
          )
          (2): Dropout(p=0.5, inplace=False)
        )
      )
    )
  )
  (2): ClassificationHead(
    (clshead): Sequential(
      (0): Reduce('b n e -> b e', 'mean')
      (1): LayerNorm((50,), eps=1e-05, elementwise_affine=True)
      (2): Linear(in_features=50, out_features=1, bias=True)
    )
  )
)
DataParallel(
  (module): Discriminator(
    (0): PatchEmbedding_Linear(
      (projection): Sequential(
        (0): Rearrange('b c (h s1) (w s2) -> b (h w) (s1 s2 c)', s1=1, s2=15)
        (1): Linear(in_features=90, out_features=50, bias=True)
      )
    )
    (1): Dis_TransformerEncoder(
      (0): Dis_TransformerEncoderBlock(
        (0): ResidualAdd(
          (fn): Sequential(
            (0): LayerNorm((50,), eps=1e-05, elementwise_affine=True)
            (1): MultiHeadAttention(
              (keys): Linear(in_features=50, out_features=50, bias=True)
              (queries): Linear(in_features=50, out_features=50, bias=True)
              (values): Linear(in_features=50, out_features=50, bias=True)
              (att_drop): Dropout(p=0.5, inplace=False)
              (projection): Linear(in_features=50, out_features=50, bias=True)
            )
            (2): Dropout(p=0.5, inplace=False)
          )
        )
        (1): ResidualAdd(
          (fn): Sequential(
            (0): LayerNorm((50,), eps=1e-05, elementwise_affine=True)
            (1): FeedForwardBlock(
              (0): Linear(in_features=50, out_features=200, bias=True)
              (1): GELU(approximate='none')
              (2): Dropout(p=0.5, inplace=False)
              (3): Linear(in_features=200, out_features=50, bias=True)
            )
            (2): Dropout(p=0.5, inplace=False)
          )
        )
      )
      (1): Dis_TransformerEncoderBlock(
        (0): ResidualAdd(
          (fn): Sequential(
            (0): LayerNorm((50,), eps=1e-05, elementwise_affine=True)
            (1): MultiHeadAttention(
              (keys): Linear(in_features=50, out_features=50, bias=True)
              (queries): Linear(in_features=50, out_features=50, bias=True)
              (values): Linear(in_features=50, out_features=50, bias=True)
              (att_drop): Dropout(p=0.5, inplace=False)
              (projection): Linear(in_features=50, out_features=50, bias=True)
            )
            (2): Dropout(p=0.5, inplace=False)
          )
        )
        (1): ResidualAdd(
          (fn): Sequential(
            (0): LayerNorm((50,), eps=1e-05, elementwise_affine=True)
            (1): FeedForwardBlock(
              (0): Linear(in_features=50, out_features=200, bias=True)
              (1): GELU(approximate='none')
              (2): Dropout(p=0.5, inplace=False)
              (3): Linear(in_features=200, out_features=50, bias=True)
            )
            (2): Dropout(p=0.5, inplace=False)
          )
        )
      )
      (2): Dis_TransformerEncoderBlock(
        (0): ResidualAdd(
          (fn): Sequential(
            (0): LayerNorm((50,), eps=1e-05, elementwise_affine=True)
            (1): MultiHeadAttention(
              (keys): Linear(in_features=50, out_features=50, bias=True)
              (queries): Linear(in_features=50, out_features=50, bias=True)
              (values): Linear(in_features=50, out_features=50, bias=True)
              (att_drop): Dropout(p=0.5, inplace=False)
              (projection): Linear(in_features=50, out_features=50, bias=True)
            )
            (2): Dropout(p=0.5, inplace=False)
          )
        )
        (1): ResidualAdd(
          (fn): Sequential(
            (0): LayerNorm((50,), eps=1e-05, elementwise_affine=True)
            (1): FeedForwardBlock(
              (0): Linear(in_features=50, out_features=200, bias=True)
              (1): GELU(approximate='none')
              (2): Dropout(p=0.5, inplace=False)
              (3): Linear(in_features=200, out_features=50, bias=True)
            )
            (2): Dropout(p=0.5, inplace=False)
          )
        )
      )
    )
    (2): ClassificationHead(
      (clshead): Sequential(
        (0): Reduce('b n e -> b e', 'mean')
        (1): LayerNorm((50,), eps=1e-05, elementwise_affine=True)
        (2): Linear(in_features=50, out_features=1, bias=True)
      )
    )
  )
)
UCI_DAGHAR_Multiclass
daghar
return single class data and labels, class is UCI_DAGHAR_Multiclass
data shape is (73576, 6, 1, 30)
label shape is (73576,)
4599
Epochs between checkpoint: 3



Saving checkpoint 1 in logs/daghar_all_50000_6axis_30_100/UCI_DAGHAR_Multiclass_50000_D_30_2024_10_29_19_14_34/Model



[Epoch 0/11] [Batch 0/4599] [D loss: 4.785041] [G loss: 2.371347] [ema: 0.000000] 
…
